#loc = loc("/scratch/deepseek-prof/cache/torchinductor_lab/7v/c7vmhsilcyvz5n2pn3jmnmayfqntjsiyig4u3fp7t7v6spbqylsg.py":18:0)
#loc17 = loc("in_out_ptr0"(#loc))
#loc18 = loc("in_ptr0"(#loc))
#loc19 = loc("xnumel"(#loc))
module {
  tt.func public @triton_poi_fused__unsafe_view_add_2(%in_out_ptr0: !tt.ptr<f16> {tt.divisibility = 16 : i32} loc("in_out_ptr0"(#loc)), %in_ptr0: !tt.ptr<f16> {tt.divisibility = 16 : i32} loc("in_ptr0"(#loc)), %xnumel: i32 {tt.divisibility = 16 : i32} loc("xnumel"(#loc))) attributes {noinline = false} {
    %xnumel_0 = arith.constant 1048576 : i32 loc(#loc20)
    %xoffset = tt.get_program_id x : i32 loc(#loc21)
    %xoffset_1 = arith.constant 512 : i32 loc(#loc22)
    %xoffset_2 = arith.constant 512 : i32 loc(#loc22)
    %xoffset_3 = arith.muli %xoffset, %xoffset_2 : i32 loc(#loc22)
    %xindex = tt.make_range {end = 512 : i32, start = 0 : i32} : tensor<512xi32> loc(#loc23)
    %xindex_4 = tt.splat %xoffset_3 : i32 -> tensor<512xi32> loc(#loc24)
    %xindex_5 = arith.addi %xindex_4, %xindex : tensor<512xi32> loc(#loc24)
    %xmask = arith.constant true loc(#loc25)
    %xmask_6 = arith.constant dense<true> : tensor<512xi1> loc(#loc25)
    %tmp0 = tt.splat %in_ptr0 : !tt.ptr<f16> -> tensor<512x!tt.ptr<f16>> loc(#loc26)
    %tmp0_7 = tt.addptr %tmp0, %xindex_5 : tensor<512x!tt.ptr<f16>>, tensor<512xi32> loc(#loc26)
    %tmp0_8 = tt.load %tmp0_7 : tensor<512x!tt.ptr<f16>> loc(#loc27)
    %tmp0_9 = arith.extf %tmp0_8 : tensor<512xf16> to tensor<512xf32> loc(#loc28)
    %tmp1 = tt.splat %in_out_ptr0 : !tt.ptr<f16> -> tensor<512x!tt.ptr<f16>> loc(#loc29)
    %tmp1_10 = tt.addptr %tmp1, %xindex_5 : tensor<512x!tt.ptr<f16>>, tensor<512xi32> loc(#loc29)
    %tmp1_11 = tt.load %tmp1_10 : tensor<512x!tt.ptr<f16>> loc(#loc30)
    %tmp1_12 = arith.extf %tmp1_11 : tensor<512xf16> to tensor<512xf32> loc(#loc31)
    %tmp2 = arith.addf %tmp0_9, %tmp1_12 : tensor<512xf32> loc(#loc32)
    %0 = tt.splat %in_out_ptr0 : !tt.ptr<f16> -> tensor<512x!tt.ptr<f16>> loc(#loc14)
    %1 = tt.addptr %0, %xindex_5 : tensor<512x!tt.ptr<f16>>, tensor<512xi32> loc(#loc14)
    %2 = arith.truncf %tmp2 : tensor<512xf32> to tensor<512xf16> loc(#loc15)
    tt.store %1, %2 : tensor<512x!tt.ptr<f16>> loc(#loc15)
    tt.return loc(#loc16)
  } loc(#loc)
} loc(#loc)
#loc1 = loc("/scratch/deepseek-prof/cache/torchinductor_lab/7v/c7vmhsilcyvz5n2pn3jmnmayfqntjsiyig4u3fp7t7v6spbqylsg.py":19:13)
#loc2 = loc("/scratch/deepseek-prof/cache/torchinductor_lab/7v/c7vmhsilcyvz5n2pn3jmnmayfqntjsiyig4u3fp7t7v6spbqylsg.py":20:28)
#loc3 = loc("/scratch/deepseek-prof/cache/torchinductor_lab/7v/c7vmhsilcyvz5n2pn3jmnmayfqntjsiyig4u3fp7t7v6spbqylsg.py":20:33)
#loc4 = loc("/scratch/deepseek-prof/cache/torchinductor_lab/7v/c7vmhsilcyvz5n2pn3jmnmayfqntjsiyig4u3fp7t7v6spbqylsg.py":21:36)
#loc5 = loc("/scratch/deepseek-prof/cache/torchinductor_lab/7v/c7vmhsilcyvz5n2pn3jmnmayfqntjsiyig4u3fp7t7v6spbqylsg.py":21:23)
#loc6 = loc("/scratch/deepseek-prof/cache/torchinductor_lab/7v/c7vmhsilcyvz5n2pn3jmnmayfqntjsiyig4u3fp7t7v6spbqylsg.py":22:36)
#loc7 = loc("/scratch/deepseek-prof/cache/torchinductor_lab/7v/c7vmhsilcyvz5n2pn3jmnmayfqntjsiyig4u3fp7t7v6spbqylsg.py":24:30)
#loc8 = loc("/scratch/deepseek-prof/cache/torchinductor_lab/7v/c7vmhsilcyvz5n2pn3jmnmayfqntjsiyig4u3fp7t7v6spbqylsg.py":24:35)
#loc9 = loc("/scratch/deepseek-prof/cache/torchinductor_lab/7v/c7vmhsilcyvz5n2pn3jmnmayfqntjsiyig4u3fp7t7v6spbqylsg.py":24:44)
#loc10 = loc("/scratch/deepseek-prof/cache/torchinductor_lab/7v/c7vmhsilcyvz5n2pn3jmnmayfqntjsiyig4u3fp7t7v6spbqylsg.py":25:34)
#loc11 = loc("/scratch/deepseek-prof/cache/torchinductor_lab/7v/c7vmhsilcyvz5n2pn3jmnmayfqntjsiyig4u3fp7t7v6spbqylsg.py":25:39)
#loc12 = loc("/scratch/deepseek-prof/cache/torchinductor_lab/7v/c7vmhsilcyvz5n2pn3jmnmayfqntjsiyig4u3fp7t7v6spbqylsg.py":25:48)
#loc13 = loc("/scratch/deepseek-prof/cache/torchinductor_lab/7v/c7vmhsilcyvz5n2pn3jmnmayfqntjsiyig4u3fp7t7v6spbqylsg.py":26:18)
#loc14 = loc("/scratch/deepseek-prof/cache/torchinductor_lab/7v/c7vmhsilcyvz5n2pn3jmnmayfqntjsiyig4u3fp7t7v6spbqylsg.py":27:28)
#loc15 = loc("/scratch/deepseek-prof/cache/torchinductor_lab/7v/c7vmhsilcyvz5n2pn3jmnmayfqntjsiyig4u3fp7t7v6spbqylsg.py":27:39)
#loc16 = loc("/scratch/deepseek-prof/cache/torchinductor_lab/7v/c7vmhsilcyvz5n2pn3jmnmayfqntjsiyig4u3fp7t7v6spbqylsg.py":27:4)
#loc20 = loc("xnumel"(#loc1))
#loc21 = loc("xoffset"(#loc2))
#loc22 = loc("xoffset"(#loc3))
#loc23 = loc("xindex"(#loc4))
#loc24 = loc("xindex"(#loc5))
#loc25 = loc("xmask"(#loc6))
#loc26 = loc("tmp0"(#loc7))
#loc27 = loc("tmp0"(#loc8))
#loc28 = loc("tmp0"(#loc9))
#loc29 = loc("tmp1"(#loc10))
#loc30 = loc("tmp1"(#loc11))
#loc31 = loc("tmp1"(#loc12))
#loc32 = loc("tmp2"(#loc13))
