#loc = loc("/scratch/deepseek-prof/cache/torchinductor_lab/ac/caccma7oga2dk5wuxe7v3ln7cjtdoxacw4f4mqlmktwlb7lqhjux.py":18:0)
#loc20 = loc("in_out_ptr0"(#loc))
#loc21 = loc("xnumel"(#loc))
module {
  tt.func public @triton_poi_fused__unsafe_view_gelu_1(%in_out_ptr0: !tt.ptr<f16> {tt.divisibility = 16 : i32} loc("in_out_ptr0"(#loc)), %xnumel: i32 {tt.divisibility = 16 : i32} loc("xnumel"(#loc))) attributes {noinline = false} {
    %tmp13 = arith.constant dense<1.000000e+00> : tensor<1024xf32> loc(#loc22)
    %tmp10 = arith.constant dense<0.797884583> : tensor<1024xf32> loc(#loc23)
    %tmp7 = arith.constant dense<4.471500e-02> : tensor<1024xf32> loc(#loc24)
    %tmp3 = arith.constant dense<5.000000e-01> : tensor<1024xf32> loc(#loc25)
    %c1024_i32 = arith.constant 1024 : i32 loc(#loc5)
    %xoffset = tt.get_program_id x : i32 loc(#loc26)
    %xoffset_0 = arith.muli %xoffset, %c1024_i32 : i32 loc(#loc27)
    %xindex = tt.make_range {end = 1024 : i32, start = 0 : i32} : tensor<1024xi32> loc(#loc28)
    %xindex_1 = tt.splat %xoffset_0 : i32 -> tensor<1024xi32> loc(#loc29)
    %xindex_2 = arith.addi %xindex_1, %xindex : tensor<1024xi32> loc(#loc29)
    %tmp0 = tt.splat %in_out_ptr0 : !tt.ptr<f16> -> tensor<1024x!tt.ptr<f16>> loc(#loc30)
    %tmp0_3 = tt.addptr %tmp0, %xindex_2 : tensor<1024x!tt.ptr<f16>>, tensor<1024xi32> loc(#loc30)
    %tmp0_4 = tt.load %tmp0_3 : tensor<1024x!tt.ptr<f16>> loc(#loc31)
    %tmp0_5 = arith.extf %tmp0_4 : tensor<1024xf16> to tensor<1024xf32> loc(#loc32)
    %tmp3_6 = arith.mulf %tmp0_5, %tmp3 : tensor<1024xf32> loc(#loc25)
    %tmp4 = arith.mulf %tmp0_5, %tmp0_5 : tensor<1024xf32> loc(#loc33)
    %tmp5 = arith.mulf %tmp4, %tmp0_5 : tensor<1024xf32> loc(#loc34)
    %tmp7_7 = arith.mulf %tmp5, %tmp7 : tensor<1024xf32> loc(#loc24)
    %tmp8 = arith.addf %tmp0_5, %tmp7_7 : tensor<1024xf32> loc(#loc35)
    %tmp10_8 = arith.mulf %tmp8, %tmp10 : tensor<1024xf32> loc(#loc23)
    %tmp11 = tt.extern_elementwise %tmp10_8 {libname = "", libpath = "", pure = true, symbol = "__nv_tanhf"} : (tensor<1024xf32>) -> tensor<1024xf32> loc(#loc36)
    %tmp13_9 = arith.addf %tmp11, %tmp13 : tensor<1024xf32> loc(#loc22)
    %tmp14 = arith.mulf %tmp3_6, %tmp13_9 : tensor<1024xf32> loc(#loc37)
    %0 = arith.truncf %tmp14 : tensor<1024xf32> to tensor<1024xf16> loc(#loc18)
    tt.store %tmp0_3, %0 : tensor<1024x!tt.ptr<f16>> loc(#loc18)
    tt.return loc(#loc19)
  } loc(#loc)
} loc(#loc)
#loc1 = loc("/scratch/deepseek-prof/cache/torchinductor_lab/ac/caccma7oga2dk5wuxe7v3ln7cjtdoxacw4f4mqlmktwlb7lqhjux.py":37:20)
#loc2 = loc("/scratch/deepseek-prof/cache/torchinductor_lab/ac/caccma7oga2dk5wuxe7v3ln7cjtdoxacw4f4mqlmktwlb7lqhjux.py":34:19)
#loc3 = loc("/scratch/deepseek-prof/cache/torchinductor_lab/ac/caccma7oga2dk5wuxe7v3ln7cjtdoxacw4f4mqlmktwlb7lqhjux.py":31:18)
#loc4 = loc("/scratch/deepseek-prof/cache/torchinductor_lab/ac/caccma7oga2dk5wuxe7v3ln7cjtdoxacw4f4mqlmktwlb7lqhjux.py":27:18)
#loc5 = loc(unknown)
#loc6 = loc("/scratch/deepseek-prof/cache/torchinductor_lab/ac/caccma7oga2dk5wuxe7v3ln7cjtdoxacw4f4mqlmktwlb7lqhjux.py":20:28)
#loc7 = loc("/scratch/deepseek-prof/cache/torchinductor_lab/ac/caccma7oga2dk5wuxe7v3ln7cjtdoxacw4f4mqlmktwlb7lqhjux.py":20:33)
#loc8 = loc("/scratch/deepseek-prof/cache/torchinductor_lab/ac/caccma7oga2dk5wuxe7v3ln7cjtdoxacw4f4mqlmktwlb7lqhjux.py":21:36)
#loc9 = loc("/scratch/deepseek-prof/cache/torchinductor_lab/ac/caccma7oga2dk5wuxe7v3ln7cjtdoxacw4f4mqlmktwlb7lqhjux.py":21:23)
#loc10 = loc("/scratch/deepseek-prof/cache/torchinductor_lab/ac/caccma7oga2dk5wuxe7v3ln7cjtdoxacw4f4mqlmktwlb7lqhjux.py":24:34)
#loc11 = loc("/scratch/deepseek-prof/cache/torchinductor_lab/ac/caccma7oga2dk5wuxe7v3ln7cjtdoxacw4f4mqlmktwlb7lqhjux.py":24:39)
#loc12 = loc("/scratch/deepseek-prof/cache/torchinductor_lab/ac/caccma7oga2dk5wuxe7v3ln7cjtdoxacw4f4mqlmktwlb7lqhjux.py":24:48)
#loc13 = loc("/scratch/deepseek-prof/cache/torchinductor_lab/ac/caccma7oga2dk5wuxe7v3ln7cjtdoxacw4f4mqlmktwlb7lqhjux.py":28:18)
#loc14 = loc("/scratch/deepseek-prof/cache/torchinductor_lab/ac/caccma7oga2dk5wuxe7v3ln7cjtdoxacw4f4mqlmktwlb7lqhjux.py":29:18)
#loc15 = loc("/scratch/deepseek-prof/cache/torchinductor_lab/ac/caccma7oga2dk5wuxe7v3ln7cjtdoxacw4f4mqlmktwlb7lqhjux.py":32:18)
#loc16 = loc("/scratch/deepseek-prof/cache/torchinductor_lab/ac/caccma7oga2dk5wuxe7v3ln7cjtdoxacw4f4mqlmktwlb7lqhjux.py":35:27)
#loc17 = loc("/scratch/deepseek-prof/cache/torchinductor_lab/ac/caccma7oga2dk5wuxe7v3ln7cjtdoxacw4f4mqlmktwlb7lqhjux.py":38:19)
#loc18 = loc("/scratch/deepseek-prof/cache/torchinductor_lab/ac/caccma7oga2dk5wuxe7v3ln7cjtdoxacw4f4mqlmktwlb7lqhjux.py":40:40)
#loc19 = loc("/scratch/deepseek-prof/cache/torchinductor_lab/ac/caccma7oga2dk5wuxe7v3ln7cjtdoxacw4f4mqlmktwlb7lqhjux.py":40:4)
#loc22 = loc("tmp13"(#loc1))
#loc23 = loc("tmp10"(#loc2))
#loc24 = loc("tmp7"(#loc3))
#loc25 = loc("tmp3"(#loc4))
#loc26 = loc("xoffset"(#loc6))
#loc27 = loc("xoffset"(#loc7))
#loc28 = loc("xindex"(#loc8))
#loc29 = loc("xindex"(#loc9))
#loc30 = loc("tmp0"(#loc10))
#loc31 = loc("tmp0"(#loc11))
#loc32 = loc("tmp0"(#loc12))
#loc33 = loc("tmp4"(#loc13))
#loc34 = loc("tmp5"(#loc14))
#loc35 = loc("tmp8"(#loc15))
#loc36 = loc("tmp11"(#loc16))
#loc37 = loc("tmp14"(#loc17))
