#loc = loc("/scratch/deepseek-prof/cache/torchinductor_lab/et/cetatrwkgbvs6w5akk74ym3ehfa5bbctyo73w2wnae755zri3d5k.py":18:0)
#loc51 = loc("/scratch/deepseek-prof/env/py312/lib64/python3.12/site-packages/triton/language/standard.py":287:0)
#loc53 = loc(unknown)
#loc56 = loc("/scratch/deepseek-prof/env/py312/lib64/python3.12/site-packages/triton/language/standard.py":262:0)
#loc60 = loc("in_ptr0"(#loc))
#loc61 = loc("in_ptr1"(#loc))
#loc62 = loc("in_ptr2"(#loc))
#loc63 = loc("out_ptr2"(#loc))
#loc64 = loc("xnumel"(#loc))
#loc65 = loc("r0_numel"(#loc))
#loc111 = loc("input"(#loc51))
#loc112 = loc("a"(#loc56))
#loc113 = loc("b"(#loc56))
module {
  tt.func public @triton_per_fused_native_layer_norm_0(%in_ptr0: !tt.ptr<f16> {tt.divisibility = 16 : i32} loc("in_ptr0"(#loc)), %in_ptr1: !tt.ptr<f16> {tt.divisibility = 16 : i32} loc("in_ptr1"(#loc)), %in_ptr2: !tt.ptr<f16> {tt.divisibility = 16 : i32} loc("in_ptr2"(#loc)), %out_ptr2: !tt.ptr<f16> {tt.divisibility = 16 : i32} loc("out_ptr2"(#loc)), %xnumel: i32 {tt.divisibility = 16 : i32} loc("xnumel"(#loc)), %r0_numel: i32 {tt.divisibility = 16 : i32} loc("r0_numel"(#loc))) attributes {noinline = false} {
    %xnumel_0 = arith.constant 1024 : i32 loc(#loc66)
    %r0_numel_1 = arith.constant 1024 : i32 loc(#loc67)
    %xoffset = tt.get_program_id x : i32 loc(#loc68)
    %xoffset_2 = arith.constant 1 : i32 loc(#loc69)
    %xoffset_3 = arith.constant 1 : i32 loc(#loc69)
    %xoffset_4 = arith.muli %xoffset, %xoffset_3 : i32 loc(#loc69)
    %xindex = tt.make_range {end = 1 : i32, start = 0 : i32} : tensor<1xi32> loc(#loc70)
    %xindex_5 = tt.expand_dims %xindex {axis = 1 : i32} : tensor<1xi32> -> tensor<1x1xi32> loc(#loc71)
    %xindex_6 = tt.splat %xoffset_4 : i32 -> tensor<1x1xi32> loc(#loc72)
    %xindex_7 = arith.addi %xindex_6, %xindex_5 : tensor<1x1xi32> loc(#loc72)
    %xmask = arith.constant dense<1024> : tensor<1x1xi32> loc(#loc73)
    %xmask_8 = arith.cmpi slt, %xindex_7, %xmask : tensor<1x1xi32> loc(#loc73)
    %r0_index = tt.make_range {end = 1024 : i32, start = 0 : i32} : tensor<1024xi32> loc(#loc74)
    %r0_index_9 = tt.expand_dims %r0_index {axis = 0 : i32} : tensor<1024xi32> -> tensor<1x1024xi32> loc(#loc75)
    %r0_offset = arith.constant 0 : i32 loc(#loc76)
    %r0_mask = arith.constant true loc(#loc77)
    %r0_mask_10 = arith.constant dense<true> : tensor<1024xi1> loc(#loc77)
    %r0_mask_11 = tt.expand_dims %r0_mask_10 {axis = 0 : i32} : tensor<1024xi1> -> tensor<1x1024xi1> loc(#loc78)
    %tmp0 = arith.constant 1024 : i32 loc(#loc79)
    %tmp0_12 = arith.constant 1024 : i32 loc(#loc79)
    %tmp0_13 = arith.constant dense<1024> : tensor<1x1xi32> loc(#loc79)
    %tmp0_14 = arith.muli %tmp0_13, %xindex_7 : tensor<1x1xi32> loc(#loc79)
    %tmp0_15 = tt.broadcast %tmp0_14 : tensor<1x1xi32> -> tensor<1x1024xi32> loc(#loc80)
    %tmp0_16 = arith.addi %r0_index_9, %tmp0_15 : tensor<1x1024xi32> loc(#loc80)
    %tmp0_17 = tt.splat %in_ptr0 : !tt.ptr<f16> -> tensor<1x1024x!tt.ptr<f16>> loc(#loc81)
    %tmp0_18 = tt.addptr %tmp0_17, %tmp0_16 : tensor<1x1024x!tt.ptr<f16>>, tensor<1x1024xi32> loc(#loc81)
    %tmp0_19 = arith.constant 0.000000e+00 : f32 loc(#loc82)
    %tmp0_20 = tt.broadcast %xmask_8 : tensor<1x1xi1> -> tensor<1x1024xi1> loc(#loc82)
    %tmp0_21 = arith.constant dense<0.000000e+00> : tensor<1x1024xf32> loc(#loc82)
    %tmp0_22 = arith.truncf %tmp0_21 : tensor<1x1024xf32> to tensor<1x1024xf16> loc(#loc82)
    %tmp0_23 = tt.load %tmp0_18, %tmp0_20, %tmp0_22 : tensor<1x1024x!tt.ptr<f16>> loc(#loc82)
    %tmp0_24 = arith.extf %tmp0_23 : tensor<1x1024xf16> to tensor<1x1024xf32> loc(#loc83)
    %tmp25 = tt.splat %in_ptr1 : !tt.ptr<f16> -> tensor<1x1024x!tt.ptr<f16>> loc(#loc84)
    %tmp25_25 = tt.addptr %tmp25, %r0_index_9 : tensor<1x1024x!tt.ptr<f16>>, tensor<1x1024xi32> loc(#loc84)
    %tmp25_26 = tt.load %tmp25_25 evictionPolicy = evict_last : tensor<1x1024x!tt.ptr<f16>> loc(#loc85)
    %tmp25_27 = arith.extf %tmp25_26 : tensor<1x1024xf16> to tensor<1x1024xf32> loc(#loc86)
    %tmp28 = tt.splat %in_ptr2 : !tt.ptr<f16> -> tensor<1x1024x!tt.ptr<f16>> loc(#loc87)
    %tmp28_28 = tt.addptr %tmp28, %r0_index_9 : tensor<1x1024x!tt.ptr<f16>>, tensor<1x1024xi32> loc(#loc87)
    %tmp28_29 = tt.load %tmp28_28 evictionPolicy = evict_last : tensor<1x1024x!tt.ptr<f16>> loc(#loc88)
    %tmp28_30 = arith.extf %tmp28_29 : tensor<1x1024xf16> to tensor<1x1024xf32> loc(#loc89)
    %tmp4 = arith.constant 0 : i32 loc(#loc90)
    %tmp4_31 = arith.constant 0.000000e+00 : f32 loc(#loc90)
    %tmp4_32 = arith.constant dense<0.000000e+00> : tensor<1x1024xf32> loc(#loc90)
    %tmp4_33 = tt.broadcast %xmask_8 : tensor<1x1xi1> -> tensor<1x1024xi1> loc(#loc90)
    %tmp4_34 = arith.select %tmp4_33, %tmp0_24, %tmp4_32 : tensor<1x1024xi1>, tensor<1x1024xf32> loc(#loc90)
    %tmp7 = arith.constant 0 : i32 loc(#loc91)
    %tmp7_35 = arith.constant 0.000000e+00 : f32 loc(#loc91)
    %tmp7_36 = arith.constant dense<0.000000e+00> : tensor<1x1024xf32> loc(#loc91)
    %tmp7_37 = tt.broadcast %xmask_8 : tensor<1x1xi1> -> tensor<1x1024xi1> loc(#loc91)
    %tmp7_38 = arith.select %tmp7_37, %tmp0_24, %tmp7_36 : tensor<1x1024xi1>, tensor<1x1024xf32> loc(#loc91)
    %tmp8 = tt.call @"triton.language.standard.sum__fp32S1_1024S__(1,)cconstexpr_1__(2,)cconstexpr_False__(3,)cNone"(%tmp7_38) : (tensor<1x1024xf32>) -> tensor<1xf32> loc(#loc92)
    %tmp8_39 = tt.expand_dims %tmp8 {axis = 1 : i32} : tensor<1xf32> -> tensor<1x1xf32> loc(#loc93)
    %tmp9 = arith.constant 1024 : i32 loc(#loc94)
    %tmp9_40 = arith.constant dense<1024> : tensor<1x1xi32> loc(#loc94)
    %tmp10 = arith.sitofp %tmp9_40 : tensor<1x1xi32> to tensor<1x1xf32> loc(#loc95)
    %tmp11 = arith.divf %tmp8_39, %tmp10 : tensor<1x1xf32> loc(#loc96)
    %tmp12 = tt.broadcast %tmp11 : tensor<1x1xf32> -> tensor<1x1024xf32> loc(#loc97)
    %tmp12_41 = arith.subf %tmp0_24, %tmp12 : tensor<1x1024xf32> loc(#loc97)
    %tmp13 = arith.mulf %tmp12_41, %tmp12_41 : tensor<1x1024xf32> loc(#loc98)
    %tmp16 = arith.constant 0 : i32 loc(#loc99)
    %tmp16_42 = arith.constant 0.000000e+00 : f32 loc(#loc99)
    %tmp16_43 = arith.constant dense<0.000000e+00> : tensor<1x1024xf32> loc(#loc99)
    %tmp16_44 = tt.broadcast %xmask_8 : tensor<1x1xi1> -> tensor<1x1024xi1> loc(#loc99)
    %tmp16_45 = arith.select %tmp16_44, %tmp13, %tmp16_43 : tensor<1x1024xi1>, tensor<1x1024xf32> loc(#loc99)
    %tmp17 = tt.call @"triton.language.standard.sum__fp32S1_1024S__(1,)cconstexpr_1__(2,)cconstexpr_False__(3,)cNone"(%tmp16_45) : (tensor<1x1024xf32>) -> tensor<1xf32> loc(#loc100)
    %tmp17_46 = tt.expand_dims %tmp17 {axis = 1 : i32} : tensor<1xf32> -> tensor<1x1xf32> loc(#loc101)
    %tmp18 = tt.broadcast %tmp11 : tensor<1x1xf32> -> tensor<1x1024xf32> loc(#loc102)
    %tmp18_47 = arith.subf %tmp0_24, %tmp18 : tensor<1x1024xf32> loc(#loc102)
    %tmp19 = arith.constant 1.024000e+03 : f32 loc(#loc103)
    %tmp19_48 = arith.constant dense<1.024000e+03> : tensor<1x1xf32> loc(#loc103)
    %tmp20 = arith.divf %tmp17_46, %tmp19_48 : tensor<1x1xf32> loc(#loc104)
    %tmp21 = arith.constant 9.99999974E-6 : f32 loc(#loc105)
    %tmp21_49 = arith.constant dense<9.99999974E-6> : tensor<1x1xf32> loc(#loc105)
    %tmp22 = arith.addf %tmp20, %tmp21_49 : tensor<1x1xf32> loc(#loc106)
    %tmp23 = tt.extern_elementwise %tmp22 {libname = "", libpath = "", pure = true, symbol = "__nv_rsqrtf"} : (tensor<1x1xf32>) -> tensor<1x1xf32> loc(#loc107)
    %tmp24 = tt.broadcast %tmp23 : tensor<1x1xf32> -> tensor<1x1024xf32> loc(#loc108)
    %tmp24_50 = arith.mulf %tmp18_47, %tmp24 : tensor<1x1024xf32> loc(#loc108)
    %tmp27 = arith.mulf %tmp24_50, %tmp25_27 : tensor<1x1024xf32> loc(#loc109)
    %tmp30 = arith.addf %tmp27, %tmp28_30 : tensor<1x1024xf32> loc(#loc110)
    %c1024_i32 = arith.constant 1024 : i32 loc(#loc46)
    %c1024_i32_51 = arith.constant 1024 : i32 loc(#loc46)
    %cst = arith.constant dense<1024> : tensor<1x1xi32> loc(#loc46)
    %0 = arith.muli %cst, %xindex_7 : tensor<1x1xi32> loc(#loc46)
    %1 = tt.broadcast %0 : tensor<1x1xi32> -> tensor<1x1024xi32> loc(#loc47)
    %2 = arith.addi %r0_index_9, %1 : tensor<1x1024xi32> loc(#loc47)
    %3 = tt.splat %out_ptr2 : !tt.ptr<f16> -> tensor<1x1024x!tt.ptr<f16>> loc(#loc48)
    %4 = tt.addptr %3, %2 : tensor<1x1024x!tt.ptr<f16>>, tensor<1x1024xi32> loc(#loc48)
    %5 = tt.broadcast %xmask_8 : tensor<1x1xi1> -> tensor<1x1024xi1> loc(#loc49)
    %6 = arith.truncf %tmp30 : tensor<1x1024xf32> to tensor<1x1024xf16> loc(#loc49)
    tt.store %4, %6, %5 : tensor<1x1024x!tt.ptr<f16>> loc(#loc49)
    tt.return loc(#loc50)
  } loc(#loc)
  tt.func private @"triton.language.standard.sum__fp32S1_1024S__(1,)cconstexpr_1__(2,)cconstexpr_False__(3,)cNone"(%input: tensor<1x1024xf32> loc("input"(#loc51))) -> tensor<1xf32> attributes {noinline = false} {
    %0 = "tt.reduce"(%input) <{axis = 1 : i32}> ({
    ^bb0(%arg1: f32 loc(unknown), %arg2: f32 loc(unknown)):
      %2 = tt.call @triton.language.standard._sum_combine__fp32_fp32__(%arg1, %arg2) : (f32, f32) -> f32 loc(#loc52)
      tt.reduce.return %2 : f32 loc(#loc52)
    }) : (tensor<1x1024xf32>) -> tensor<1xf32> loc(#loc52)
    tt.return %0 : tensor<1xf32> loc(#loc54)
  ^bb1:  // no predecessors
    %1 = ub.poison : tensor<1xf32> loc(#loc55)
    tt.return %1 : tensor<1xf32> loc(#loc55)
  } loc(#loc51)
  tt.func private @triton.language.standard._sum_combine__fp32_fp32__(%a: f32 loc("a"(#loc56)), %b: f32 loc("b"(#loc56))) -> f32 attributes {noinline = false} {
    %0 = arith.addf %a, %b : f32 loc(#loc57)
    tt.return %0 : f32 loc(#loc58)
  ^bb1:  // no predecessors
    %1 = ub.poison : f32 loc(#loc59)
    tt.return %1 : f32 loc(#loc59)
  } loc(#loc56)
} loc(#loc)
#loc1 = loc("/scratch/deepseek-prof/cache/torchinductor_lab/et/cetatrwkgbvs6w5akk74ym3ehfa5bbctyo73w2wnae755zri3d5k.py":19:13)
#loc2 = loc("/scratch/deepseek-prof/cache/torchinductor_lab/et/cetatrwkgbvs6w5akk74ym3ehfa5bbctyo73w2wnae755zri3d5k.py":20:15)
#loc3 = loc("/scratch/deepseek-prof/cache/torchinductor_lab/et/cetatrwkgbvs6w5akk74ym3ehfa5bbctyo73w2wnae755zri3d5k.py":24:28)
#loc4 = loc("/scratch/deepseek-prof/cache/torchinductor_lab/et/cetatrwkgbvs6w5akk74ym3ehfa5bbctyo73w2wnae755zri3d5k.py":24:33)
#loc5 = loc("/scratch/deepseek-prof/cache/torchinductor_lab/et/cetatrwkgbvs6w5akk74ym3ehfa5bbctyo73w2wnae755zri3d5k.py":25:36)
#loc6 = loc("/scratch/deepseek-prof/cache/torchinductor_lab/et/cetatrwkgbvs6w5akk74ym3ehfa5bbctyo73w2wnae755zri3d5k.py":25:44)
#loc7 = loc("/scratch/deepseek-prof/cache/torchinductor_lab/et/cetatrwkgbvs6w5akk74ym3ehfa5bbctyo73w2wnae755zri3d5k.py":25:23)
#loc8 = loc("/scratch/deepseek-prof/cache/torchinductor_lab/et/cetatrwkgbvs6w5akk74ym3ehfa5bbctyo73w2wnae755zri3d5k.py":26:21)
#loc9 = loc("/scratch/deepseek-prof/cache/torchinductor_lab/et/cetatrwkgbvs6w5akk74ym3ehfa5bbctyo73w2wnae755zri3d5k.py":27:28)
#loc10 = loc("/scratch/deepseek-prof/cache/torchinductor_lab/et/cetatrwkgbvs6w5akk74ym3ehfa5bbctyo73w2wnae755zri3d5k.py":27:38)
#loc11 = loc("/scratch/deepseek-prof/cache/torchinductor_lab/et/cetatrwkgbvs6w5akk74ym3ehfa5bbctyo73w2wnae755zri3d5k.py":28:16)
#loc12 = loc("/scratch/deepseek-prof/cache/torchinductor_lab/et/cetatrwkgbvs6w5akk74ym3ehfa5bbctyo73w2wnae755zri3d5k.py":29:40)
#loc13 = loc("/scratch/deepseek-prof/cache/torchinductor_lab/et/cetatrwkgbvs6w5akk74ym3ehfa5bbctyo73w2wnae755zri3d5k.py":29:49)
#loc14 = loc("/scratch/deepseek-prof/cache/torchinductor_lab/et/cetatrwkgbvs6w5akk74ym3ehfa5bbctyo73w2wnae755zri3d5k.py":34:42)
#loc15 = loc("/scratch/deepseek-prof/cache/torchinductor_lab/et/cetatrwkgbvs6w5akk74ym3ehfa5bbctyo73w2wnae755zri3d5k.py":34:37)
#loc16 = loc("/scratch/deepseek-prof/cache/torchinductor_lab/et/cetatrwkgbvs6w5akk74ym3ehfa5bbctyo73w2wnae755zri3d5k.py":34:30)
#loc17 = loc("/scratch/deepseek-prof/cache/torchinductor_lab/et/cetatrwkgbvs6w5akk74ym3ehfa5bbctyo73w2wnae755zri3d5k.py":34:47)
#loc18 = loc("/scratch/deepseek-prof/cache/torchinductor_lab/et/cetatrwkgbvs6w5akk74ym3ehfa5bbctyo73w2wnae755zri3d5k.py":34:68)
#loc19 = loc("/scratch/deepseek-prof/cache/torchinductor_lab/et/cetatrwkgbvs6w5akk74ym3ehfa5bbctyo73w2wnae755zri3d5k.py":35:31)
#loc20 = loc("/scratch/deepseek-prof/cache/torchinductor_lab/et/cetatrwkgbvs6w5akk74ym3ehfa5bbctyo73w2wnae755zri3d5k.py":35:38)
#loc21 = loc("/scratch/deepseek-prof/cache/torchinductor_lab/et/cetatrwkgbvs6w5akk74ym3ehfa5bbctyo73w2wnae755zri3d5k.py":35:77)
#loc22 = loc("/scratch/deepseek-prof/cache/torchinductor_lab/et/cetatrwkgbvs6w5akk74ym3ehfa5bbctyo73w2wnae755zri3d5k.py":36:31)
#loc23 = loc("/scratch/deepseek-prof/cache/torchinductor_lab/et/cetatrwkgbvs6w5akk74ym3ehfa5bbctyo73w2wnae755zri3d5k.py":36:38)
#loc24 = loc("/scratch/deepseek-prof/cache/torchinductor_lab/et/cetatrwkgbvs6w5akk74ym3ehfa5bbctyo73w2wnae755zri3d5k.py":36:77)
#loc25 = loc("/scratch/deepseek-prof/cache/torchinductor_lab/et/cetatrwkgbvs6w5akk74ym3ehfa5bbctyo73w2wnae755zri3d5k.py":39:33)
#loc26 = loc("/scratch/deepseek-prof/cache/torchinductor_lab/et/cetatrwkgbvs6w5akk74ym3ehfa5bbctyo73w2wnae755zri3d5k.py":41:33)
#loc27 = loc("/scratch/deepseek-prof/cache/torchinductor_lab/et/cetatrwkgbvs6w5akk74ym3ehfa5bbctyo73w2wnae755zri3d5k.py":42:24)
#loc28 = loc("/scratch/deepseek-prof/cache/torchinductor_lab/et/cetatrwkgbvs6w5akk74ym3ehfa5bbctyo73w2wnae755zri3d5k.py":42:27)
#loc29 = loc("/scratch/deepseek-prof/cache/torchinductor_lab/et/cetatrwkgbvs6w5akk74ym3ehfa5bbctyo73w2wnae755zri3d5k.py":43:33)
#loc30 = loc("/scratch/deepseek-prof/cache/torchinductor_lab/et/cetatrwkgbvs6w5akk74ym3ehfa5bbctyo73w2wnae755zri3d5k.py":44:20)
#loc31 = loc("/scratch/deepseek-prof/cache/torchinductor_lab/et/cetatrwkgbvs6w5akk74ym3ehfa5bbctyo73w2wnae755zri3d5k.py":45:20)
#loc32 = loc("/scratch/deepseek-prof/cache/torchinductor_lab/et/cetatrwkgbvs6w5akk74ym3ehfa5bbctyo73w2wnae755zri3d5k.py":46:19)
#loc33 = loc("/scratch/deepseek-prof/cache/torchinductor_lab/et/cetatrwkgbvs6w5akk74ym3ehfa5bbctyo73w2wnae755zri3d5k.py":47:20)
#loc34 = loc("/scratch/deepseek-prof/cache/torchinductor_lab/et/cetatrwkgbvs6w5akk74ym3ehfa5bbctyo73w2wnae755zri3d5k.py":49:35)
#loc35 = loc("/scratch/deepseek-prof/cache/torchinductor_lab/et/cetatrwkgbvs6w5akk74ym3ehfa5bbctyo73w2wnae755zri3d5k.py":50:26)
#loc36 = loc("/scratch/deepseek-prof/cache/torchinductor_lab/et/cetatrwkgbvs6w5akk74ym3ehfa5bbctyo73w2wnae755zri3d5k.py":50:29)
#loc37 = loc("/scratch/deepseek-prof/cache/torchinductor_lab/et/cetatrwkgbvs6w5akk74ym3ehfa5bbctyo73w2wnae755zri3d5k.py":51:19)
#loc38 = loc("/scratch/deepseek-prof/cache/torchinductor_lab/et/cetatrwkgbvs6w5akk74ym3ehfa5bbctyo73w2wnae755zri3d5k.py":52:36)
#loc39 = loc("/scratch/deepseek-prof/cache/torchinductor_lab/et/cetatrwkgbvs6w5akk74ym3ehfa5bbctyo73w2wnae755zri3d5k.py":53:21)
#loc40 = loc("/scratch/deepseek-prof/cache/torchinductor_lab/et/cetatrwkgbvs6w5akk74ym3ehfa5bbctyo73w2wnae755zri3d5k.py":54:35)
#loc41 = loc("/scratch/deepseek-prof/cache/torchinductor_lab/et/cetatrwkgbvs6w5akk74ym3ehfa5bbctyo73w2wnae755zri3d5k.py":55:20)
#loc42 = loc("/scratch/deepseek-prof/cache/torchinductor_lab/et/cetatrwkgbvs6w5akk74ym3ehfa5bbctyo73w2wnae755zri3d5k.py":56:28)
#loc43 = loc("/scratch/deepseek-prof/cache/torchinductor_lab/et/cetatrwkgbvs6w5akk74ym3ehfa5bbctyo73w2wnae755zri3d5k.py":57:20)
#loc44 = loc("/scratch/deepseek-prof/cache/torchinductor_lab/et/cetatrwkgbvs6w5akk74ym3ehfa5bbctyo73w2wnae755zri3d5k.py":59:20)
#loc45 = loc("/scratch/deepseek-prof/cache/torchinductor_lab/et/cetatrwkgbvs6w5akk74ym3ehfa5bbctyo73w2wnae755zri3d5k.py":61:20)
#loc46 = loc("/scratch/deepseek-prof/cache/torchinductor_lab/et/cetatrwkgbvs6w5akk74ym3ehfa5bbctyo73w2wnae755zri3d5k.py":63:37)
#loc47 = loc("/scratch/deepseek-prof/cache/torchinductor_lab/et/cetatrwkgbvs6w5akk74ym3ehfa5bbctyo73w2wnae755zri3d5k.py":63:32)
#loc48 = loc("/scratch/deepseek-prof/cache/torchinductor_lab/et/cetatrwkgbvs6w5akk74ym3ehfa5bbctyo73w2wnae755zri3d5k.py":63:25)
#loc49 = loc("/scratch/deepseek-prof/cache/torchinductor_lab/et/cetatrwkgbvs6w5akk74ym3ehfa5bbctyo73w2wnae755zri3d5k.py":63:49)
#loc50 = loc("/scratch/deepseek-prof/cache/torchinductor_lab/et/cetatrwkgbvs6w5akk74ym3ehfa5bbctyo73w2wnae755zri3d5k.py":63:4)
#loc52 = loc("/scratch/deepseek-prof/env/py312/lib64/python3.12/site-packages/triton/language/standard.py":293:36)
#loc54 = loc("/scratch/deepseek-prof/env/py312/lib64/python3.12/site-packages/triton/language/standard.py":293:11)
#loc55 = loc("/scratch/deepseek-prof/env/py312/lib64/python3.12/site-packages/triton/language/standard.py":293:4)
#loc57 = loc("/scratch/deepseek-prof/env/py312/lib64/python3.12/site-packages/triton/language/standard.py":263:15)
#loc58 = loc("/scratch/deepseek-prof/env/py312/lib64/python3.12/site-packages/triton/language/standard.py":263:11)
#loc59 = loc("/scratch/deepseek-prof/env/py312/lib64/python3.12/site-packages/triton/language/standard.py":263:4)
#loc66 = loc("xnumel"(#loc1))
#loc67 = loc("r0_numel"(#loc2))
#loc68 = loc("xoffset"(#loc3))
#loc69 = loc("xoffset"(#loc4))
#loc70 = loc("xindex"(#loc5))
#loc71 = loc("xindex"(#loc6))
#loc72 = loc("xindex"(#loc7))
#loc73 = loc("xmask"(#loc8))
#loc74 = loc("r0_index"(#loc9))
#loc75 = loc("r0_index"(#loc10))
#loc76 = loc("r0_offset"(#loc11))
#loc77 = loc("r0_mask"(#loc12))
#loc78 = loc("r0_mask"(#loc13))
#loc79 = loc("tmp0"(#loc14))
#loc80 = loc("tmp0"(#loc15))
#loc81 = loc("tmp0"(#loc16))
#loc82 = loc("tmp0"(#loc17))
#loc83 = loc("tmp0"(#loc18))
#loc84 = loc("tmp25"(#loc19))
#loc85 = loc("tmp25"(#loc20))
#loc86 = loc("tmp25"(#loc21))
#loc87 = loc("tmp28"(#loc22))
#loc88 = loc("tmp28"(#loc23))
#loc89 = loc("tmp28"(#loc24))
#loc90 = loc("tmp4"(#loc25))
#loc91 = loc("tmp7"(#loc26))
#loc92 = loc("tmp8"(#loc27))
#loc93 = loc("tmp8"(#loc28))
#loc94 = loc("tmp9"(#loc29))
#loc95 = loc("tmp10"(#loc30))
#loc96 = loc("tmp11"(#loc31))
#loc97 = loc("tmp12"(#loc32))
#loc98 = loc("tmp13"(#loc33))
#loc99 = loc("tmp16"(#loc34))
#loc100 = loc("tmp17"(#loc35))
#loc101 = loc("tmp17"(#loc36))
#loc102 = loc("tmp18"(#loc37))
#loc103 = loc("tmp19"(#loc38))
#loc104 = loc("tmp20"(#loc39))
#loc105 = loc("tmp21"(#loc40))
#loc106 = loc("tmp22"(#loc41))
#loc107 = loc("tmp23"(#loc42))
#loc108 = loc("tmp24"(#loc43))
#loc109 = loc("tmp27"(#loc44))
#loc110 = loc("tmp30"(#loc45))
