#loc = loc("/scratch/deepseek-prof/cache/torchinductor_lab/et/cetatrwkgbvs6w5akk74ym3ehfa5bbctyo73w2wnae755zri3d5k.py":18:0)
#loc1 = loc(unknown)
#loc20 = loc("/scratch/deepseek-prof/cache/torchinductor_lab/et/cetatrwkgbvs6w5akk74ym3ehfa5bbctyo73w2wnae755zri3d5k.py":42:24)
#loc27 = loc("/scratch/deepseek-prof/cache/torchinductor_lab/et/cetatrwkgbvs6w5akk74ym3ehfa5bbctyo73w2wnae755zri3d5k.py":50:26)
#loc38 = loc("in_ptr0"(#loc))
#loc39 = loc("in_ptr1"(#loc))
#loc40 = loc("in_ptr2"(#loc))
#loc41 = loc("out_ptr2"(#loc))
#loc42 = loc("xnumel"(#loc))
#loc43 = loc("r0_numel"(#loc))
#loc61 = loc("tmp8"(#loc20))
#loc67 = loc("tmp17"(#loc27))
#loc78 = loc(callsite(#loc1 at #loc61))
#loc80 = loc(callsite(#loc1 at #loc67))
module {
  tt.func public @triton_per_fused_native_layer_norm_0(%in_ptr0: !tt.ptr<f16> {tt.divisibility = 16 : i32} loc("in_ptr0"(#loc)), %in_ptr1: !tt.ptr<f16> {tt.divisibility = 16 : i32} loc("in_ptr1"(#loc)), %in_ptr2: !tt.ptr<f16> {tt.divisibility = 16 : i32} loc("in_ptr2"(#loc)), %out_ptr2: !tt.ptr<f16> {tt.divisibility = 16 : i32} loc("out_ptr2"(#loc)), %xnumel: i32 {tt.divisibility = 16 : i32} loc("xnumel"(#loc)), %r0_numel: i32 {tt.divisibility = 16 : i32} loc("r0_numel"(#loc))) attributes {noinline = false} {
    %c1024_i32 = arith.constant 1024 : i32 loc(#loc1)
    %tmp0 = arith.constant dense<0.000000e+00> : tensor<1x1024xf16> loc(#loc44)
    %tmp21 = arith.constant dense<9.99999974E-6> : tensor<1x1xf32> loc(#loc45)
    %cst = arith.constant dense<1.024000e+03> : tensor<1x1xf32> loc(#loc1)
    %cst_0 = arith.constant dense<0.000000e+00> : tensor<1x1024xf32> loc(#loc1)
    %xoffset = tt.get_program_id x : i32 loc(#loc46)
    %xmask = arith.cmpi slt, %xoffset, %c1024_i32 : i32 loc(#loc47)
    %r0_index = tt.make_range {end = 1024 : i32, start = 0 : i32} : tensor<1024xi32> loc(#loc48)
    %r0_index_1 = tt.expand_dims %r0_index {axis = 0 : i32} : tensor<1024xi32> -> tensor<1x1024xi32> loc(#loc49)
    %tmp0_2 = arith.muli %xoffset, %c1024_i32 : i32 loc(#loc50)
    %tmp0_3 = tt.splat %tmp0_2 : i32 -> tensor<1x1024xi32> loc(#loc75)
    %tmp0_4 = arith.addi %r0_index_1, %tmp0_3 : tensor<1x1024xi32> loc(#loc51)
    %tmp0_5 = tt.splat %in_ptr0 : !tt.ptr<f16> -> tensor<1x1024x!tt.ptr<f16>> loc(#loc52)
    %tmp0_6 = tt.addptr %tmp0_5, %tmp0_4 : tensor<1x1024x!tt.ptr<f16>>, tensor<1x1024xi32> loc(#loc52)
    %tmp0_7 = tt.splat %xmask : i1 -> tensor<1x1024xi1> loc(#loc76)
    %tmp0_8 = tt.load %tmp0_6, %tmp0_7, %tmp0 : tensor<1x1024x!tt.ptr<f16>> loc(#loc44)
    %tmp0_9 = arith.extf %tmp0_8 : tensor<1x1024xf16> to tensor<1x1024xf32> loc(#loc53)
    %tmp25 = tt.splat %in_ptr1 : !tt.ptr<f16> -> tensor<1x1024x!tt.ptr<f16>> loc(#loc54)
    %tmp25_10 = tt.addptr %tmp25, %r0_index_1 : tensor<1x1024x!tt.ptr<f16>>, tensor<1x1024xi32> loc(#loc54)
    %tmp25_11 = tt.load %tmp25_10 evictionPolicy = evict_last : tensor<1x1024x!tt.ptr<f16>> loc(#loc55)
    %tmp25_12 = arith.extf %tmp25_11 : tensor<1x1024xf16> to tensor<1x1024xf32> loc(#loc56)
    %tmp28 = tt.splat %in_ptr2 : !tt.ptr<f16> -> tensor<1x1024x!tt.ptr<f16>> loc(#loc57)
    %tmp28_13 = tt.addptr %tmp28, %r0_index_1 : tensor<1x1024x!tt.ptr<f16>>, tensor<1x1024xi32> loc(#loc57)
    %tmp28_14 = tt.load %tmp28_13 evictionPolicy = evict_last : tensor<1x1024x!tt.ptr<f16>> loc(#loc58)
    %tmp28_15 = arith.extf %tmp28_14 : tensor<1x1024xf16> to tensor<1x1024xf32> loc(#loc59)
    %tmp7 = arith.select %tmp0_7, %tmp0_9, %cst_0 : tensor<1x1024xi1>, tensor<1x1024xf32> loc(#loc60)
    %tmp8 = "tt.reduce"(%tmp7) <{axis = 1 : i32}> ({
    ^bb0(%tmp8_20: f32 loc(callsite(#loc1 at #loc61)), %tmp8_21: f32 loc(callsite(#loc1 at #loc61))):
      %tmp8_22 = arith.addf %tmp8_20, %tmp8_21 : f32 loc(#loc81)
      tt.reduce.return %tmp8_22 : f32 loc(#loc77)
    }) : (tensor<1x1024xf32>) -> tensor<1xf32> loc(#loc77)
    %tmp8_16 = tt.expand_dims %tmp8 {axis = 1 : i32} : tensor<1xf32> -> tensor<1x1xf32> loc(#loc62)
    %tmp11 = arith.divf %tmp8_16, %cst : tensor<1x1xf32> loc(#loc63)
    %tmp12 = tt.broadcast %tmp11 : tensor<1x1xf32> -> tensor<1x1024xf32> loc(#loc64)
    %tmp12_17 = arith.subf %tmp0_9, %tmp12 : tensor<1x1024xf32> loc(#loc64)
    %tmp13 = arith.mulf %tmp12_17, %tmp12_17 : tensor<1x1024xf32> loc(#loc65)
    %tmp16 = arith.select %tmp0_7, %tmp13, %cst_0 : tensor<1x1024xi1>, tensor<1x1024xf32> loc(#loc66)
    %tmp17 = "tt.reduce"(%tmp16) <{axis = 1 : i32}> ({
    ^bb0(%tmp17_20: f32 loc(callsite(#loc1 at #loc67)), %tmp17_21: f32 loc(callsite(#loc1 at #loc67))):
      %tmp17_22 = arith.addf %tmp17_20, %tmp17_21 : f32 loc(#loc82)
      tt.reduce.return %tmp17_22 : f32 loc(#loc79)
    }) : (tensor<1x1024xf32>) -> tensor<1xf32> loc(#loc79)
    %tmp17_18 = tt.expand_dims %tmp17 {axis = 1 : i32} : tensor<1xf32> -> tensor<1x1xf32> loc(#loc68)
    %tmp20 = arith.divf %tmp17_18, %cst : tensor<1x1xf32> loc(#loc69)
    %tmp22 = arith.addf %tmp20, %tmp21 : tensor<1x1xf32> loc(#loc70)
    %tmp23 = tt.extern_elementwise %tmp22 {libname = "", libpath = "", pure = true, symbol = "__nv_rsqrtf"} : (tensor<1x1xf32>) -> tensor<1x1xf32> loc(#loc71)
    %tmp24 = tt.broadcast %tmp23 : tensor<1x1xf32> -> tensor<1x1024xf32> loc(#loc72)
    %tmp24_19 = arith.mulf %tmp12_17, %tmp24 : tensor<1x1024xf32> loc(#loc72)
    %tmp27 = arith.mulf %tmp24_19, %tmp25_12 : tensor<1x1024xf32> loc(#loc73)
    %tmp30 = arith.addf %tmp27, %tmp28_15 : tensor<1x1024xf32> loc(#loc74)
    %0 = tt.splat %out_ptr2 : !tt.ptr<f16> -> tensor<1x1024x!tt.ptr<f16>> loc(#loc35)
    %1 = tt.addptr %0, %tmp0_4 : tensor<1x1024x!tt.ptr<f16>>, tensor<1x1024xi32> loc(#loc35)
    %2 = arith.truncf %tmp30 : tensor<1x1024xf32> to tensor<1x1024xf16> loc(#loc36)
    tt.store %1, %2, %tmp0_7 : tensor<1x1024x!tt.ptr<f16>> loc(#loc36)
    tt.return loc(#loc37)
  } loc(#loc)
} loc(#loc)
#loc2 = loc("/scratch/deepseek-prof/cache/torchinductor_lab/et/cetatrwkgbvs6w5akk74ym3ehfa5bbctyo73w2wnae755zri3d5k.py":34:47)
#loc3 = loc("/scratch/deepseek-prof/cache/torchinductor_lab/et/cetatrwkgbvs6w5akk74ym3ehfa5bbctyo73w2wnae755zri3d5k.py":54:35)
#loc4 = loc("/scratch/deepseek-prof/cache/torchinductor_lab/et/cetatrwkgbvs6w5akk74ym3ehfa5bbctyo73w2wnae755zri3d5k.py":24:28)
#loc5 = loc("/scratch/deepseek-prof/cache/torchinductor_lab/et/cetatrwkgbvs6w5akk74ym3ehfa5bbctyo73w2wnae755zri3d5k.py":26:21)
#loc6 = loc("/scratch/deepseek-prof/cache/torchinductor_lab/et/cetatrwkgbvs6w5akk74ym3ehfa5bbctyo73w2wnae755zri3d5k.py":27:28)
#loc7 = loc("/scratch/deepseek-prof/cache/torchinductor_lab/et/cetatrwkgbvs6w5akk74ym3ehfa5bbctyo73w2wnae755zri3d5k.py":27:38)
#loc8 = loc("/scratch/deepseek-prof/cache/torchinductor_lab/et/cetatrwkgbvs6w5akk74ym3ehfa5bbctyo73w2wnae755zri3d5k.py":34:42)
#loc9 = loc("/scratch/deepseek-prof/cache/torchinductor_lab/et/cetatrwkgbvs6w5akk74ym3ehfa5bbctyo73w2wnae755zri3d5k.py":34:37)
#loc10 = loc("/scratch/deepseek-prof/cache/torchinductor_lab/et/cetatrwkgbvs6w5akk74ym3ehfa5bbctyo73w2wnae755zri3d5k.py":34:30)
#loc11 = loc("/scratch/deepseek-prof/cache/torchinductor_lab/et/cetatrwkgbvs6w5akk74ym3ehfa5bbctyo73w2wnae755zri3d5k.py":34:68)
#loc12 = loc("/scratch/deepseek-prof/cache/torchinductor_lab/et/cetatrwkgbvs6w5akk74ym3ehfa5bbctyo73w2wnae755zri3d5k.py":35:31)
#loc13 = loc("/scratch/deepseek-prof/cache/torchinductor_lab/et/cetatrwkgbvs6w5akk74ym3ehfa5bbctyo73w2wnae755zri3d5k.py":35:38)
#loc14 = loc("/scratch/deepseek-prof/cache/torchinductor_lab/et/cetatrwkgbvs6w5akk74ym3ehfa5bbctyo73w2wnae755zri3d5k.py":35:77)
#loc15 = loc("/scratch/deepseek-prof/cache/torchinductor_lab/et/cetatrwkgbvs6w5akk74ym3ehfa5bbctyo73w2wnae755zri3d5k.py":36:31)
#loc16 = loc("/scratch/deepseek-prof/cache/torchinductor_lab/et/cetatrwkgbvs6w5akk74ym3ehfa5bbctyo73w2wnae755zri3d5k.py":36:38)
#loc17 = loc("/scratch/deepseek-prof/cache/torchinductor_lab/et/cetatrwkgbvs6w5akk74ym3ehfa5bbctyo73w2wnae755zri3d5k.py":36:77)
#loc18 = loc("/scratch/deepseek-prof/cache/torchinductor_lab/et/cetatrwkgbvs6w5akk74ym3ehfa5bbctyo73w2wnae755zri3d5k.py":41:33)
#loc19 = loc("/scratch/deepseek-prof/env/py312/lib64/python3.12/site-packages/triton/language/standard.py":293:36)
#loc21 = loc("/scratch/deepseek-prof/env/py312/lib64/python3.12/site-packages/triton/language/standard.py":263:15)
#loc22 = loc("/scratch/deepseek-prof/cache/torchinductor_lab/et/cetatrwkgbvs6w5akk74ym3ehfa5bbctyo73w2wnae755zri3d5k.py":42:27)
#loc23 = loc("/scratch/deepseek-prof/cache/torchinductor_lab/et/cetatrwkgbvs6w5akk74ym3ehfa5bbctyo73w2wnae755zri3d5k.py":45:20)
#loc24 = loc("/scratch/deepseek-prof/cache/torchinductor_lab/et/cetatrwkgbvs6w5akk74ym3ehfa5bbctyo73w2wnae755zri3d5k.py":46:19)
#loc25 = loc("/scratch/deepseek-prof/cache/torchinductor_lab/et/cetatrwkgbvs6w5akk74ym3ehfa5bbctyo73w2wnae755zri3d5k.py":47:20)
#loc26 = loc("/scratch/deepseek-prof/cache/torchinductor_lab/et/cetatrwkgbvs6w5akk74ym3ehfa5bbctyo73w2wnae755zri3d5k.py":49:35)
#loc28 = loc("/scratch/deepseek-prof/cache/torchinductor_lab/et/cetatrwkgbvs6w5akk74ym3ehfa5bbctyo73w2wnae755zri3d5k.py":50:29)
#loc29 = loc("/scratch/deepseek-prof/cache/torchinductor_lab/et/cetatrwkgbvs6w5akk74ym3ehfa5bbctyo73w2wnae755zri3d5k.py":53:21)
#loc30 = loc("/scratch/deepseek-prof/cache/torchinductor_lab/et/cetatrwkgbvs6w5akk74ym3ehfa5bbctyo73w2wnae755zri3d5k.py":55:20)
#loc31 = loc("/scratch/deepseek-prof/cache/torchinductor_lab/et/cetatrwkgbvs6w5akk74ym3ehfa5bbctyo73w2wnae755zri3d5k.py":56:28)
#loc32 = loc("/scratch/deepseek-prof/cache/torchinductor_lab/et/cetatrwkgbvs6w5akk74ym3ehfa5bbctyo73w2wnae755zri3d5k.py":57:20)
#loc33 = loc("/scratch/deepseek-prof/cache/torchinductor_lab/et/cetatrwkgbvs6w5akk74ym3ehfa5bbctyo73w2wnae755zri3d5k.py":59:20)
#loc34 = loc("/scratch/deepseek-prof/cache/torchinductor_lab/et/cetatrwkgbvs6w5akk74ym3ehfa5bbctyo73w2wnae755zri3d5k.py":61:20)
#loc35 = loc("/scratch/deepseek-prof/cache/torchinductor_lab/et/cetatrwkgbvs6w5akk74ym3ehfa5bbctyo73w2wnae755zri3d5k.py":63:25)
#loc36 = loc("/scratch/deepseek-prof/cache/torchinductor_lab/et/cetatrwkgbvs6w5akk74ym3ehfa5bbctyo73w2wnae755zri3d5k.py":63:49)
#loc37 = loc("/scratch/deepseek-prof/cache/torchinductor_lab/et/cetatrwkgbvs6w5akk74ym3ehfa5bbctyo73w2wnae755zri3d5k.py":63:4)
#loc44 = loc("tmp0"(#loc2))
#loc45 = loc("tmp21"(#loc3))
#loc46 = loc("xoffset"(#loc4))
#loc47 = loc("xmask"(#loc5))
#loc48 = loc("r0_index"(#loc6))
#loc49 = loc("r0_index"(#loc7))
#loc50 = loc("tmp0"(#loc8))
#loc51 = loc("tmp0"(#loc9))
#loc52 = loc("tmp0"(#loc10))
#loc53 = loc("tmp0"(#loc11))
#loc54 = loc("tmp25"(#loc12))
#loc55 = loc("tmp25"(#loc13))
#loc56 = loc("tmp25"(#loc14))
#loc57 = loc("tmp28"(#loc15))
#loc58 = loc("tmp28"(#loc16))
#loc59 = loc("tmp28"(#loc17))
#loc60 = loc("tmp7"(#loc18))
#loc62 = loc("tmp8"(#loc22))
#loc63 = loc("tmp11"(#loc23))
#loc64 = loc("tmp12"(#loc24))
#loc65 = loc("tmp13"(#loc25))
#loc66 = loc("tmp16"(#loc26))
#loc68 = loc("tmp17"(#loc28))
#loc69 = loc("tmp20"(#loc29))
#loc70 = loc("tmp22"(#loc30))
#loc71 = loc("tmp23"(#loc31))
#loc72 = loc("tmp24"(#loc32))
#loc73 = loc("tmp27"(#loc33))
#loc74 = loc("tmp30"(#loc34))
#loc75 = loc(fused[#loc51, #loc50])
#loc76 = loc(fused[#loc44, #loc47])
#loc77 = loc(callsite(#loc19 at #loc61))
#loc79 = loc(callsite(#loc19 at #loc67))
#loc81 = loc(callsite(#loc21 at #loc77))
#loc82 = loc(callsite(#loc21 at #loc79))
